{
  "model": "YOLO(\n  (model): SegmentationModel(\n    (model): Sequential(\n      (0): Conv(\n        (conv): Conv2d(3, 16, kernel_size=(3, 3), stride=(2, 2), padding=(1, 1))\n        (act): SiLU(inplace=True)\n      )\n      (1): Conv(\n        (conv): Conv2d(16, 32, kernel_size=(3, 3), stride=(2, 2), padding=(1, 1))\n        (act): SiLU(inplace=True)\n      )\n      (2): C3k2(\n        (cv1): Conv(\n          (conv): Conv2d(32, 32, kernel_size=(1, 1), stride=(1, 1))\n          (act): SiLU(inplace=True)\n        )\n        (cv2): Conv(\n          (conv): Conv2d(48, 64, kernel_size=(1, 1), stride=(1, 1))\n          (act): SiLU(inplace=True)\n        )\n        (m): ModuleList(\n          (0): Bottleneck(\n            (cv1): Conv(\n              (conv): Conv2d(16, 8, kernel_size=(3, 3), stride=(1, 1), padding=(1, 1))\n              (act): SiLU(inplace=True)\n            )\n            (cv2): Conv(\n              (conv): Conv2d(8, 16, kernel_size=(3, 3), stride=(1, 1), padding=(1, 1))\n              (act): SiLU(inplace=True)\n            )\n          )\n        )\n      )\n      (3): Conv(\n        (conv): Conv2d(64, 64, kernel_size=(3, 3), stride=(2, 2), padding=(1, 1))\n        (act): SiLU(inplace=True)\n      )\n      (4): C3k2(\n        (cv1): Conv(\n          (conv): Conv2d(64, 64, kernel_size=(1, 1), stride=(1, 1))\n          (act): SiLU(inplace=True)\n        )\n        (cv2): Conv(\n          (conv): Conv2d(96, 128, kernel_size=(1, 1), stride=(1, 1))\n          (act): SiLU(inplace=True)\n        )\n        (m): ModuleList(\n          (0): Bottleneck(\n            (cv1): Conv(\n              (conv): Conv2d(32, 16, kernel_size=(3, 3), stride=(1, 1), padding=(1, 1))\n              (act): SiLU(inplace=True)\n            )\n            (cv2): Conv(\n              (conv): Conv2d(16, 32, kernel_size=(3, 3), stride=(1, 1), padding=(1, 1))\n              (act): SiLU(inplace=True)\n            )\n          )\n        )\n      )\n      (5): Conv(\n        (conv): Conv2d(128, 128, kernel_size=(3, 3), stride=(2, 2), padding=(1, 1))\n        (act): SiLU(inplace=True)\n      )\n      (6): C3k2(\n        (cv1): Conv(\n          (conv): Conv2d(128, 128, kernel_size=(1, 1), stride=(1, 1))\n          (act): SiLU(inplace=True)\n        )\n        (cv2): Conv(\n          (conv): Conv2d(192, 128, kernel_size=(1, 1), stride=(1, 1))\n          (act): SiLU(inplace=True)\n        )\n        (m): ModuleList(\n          (0): C3k(\n            (cv1): Conv(\n              (conv): Conv2d(64, 32, kernel_size=(1, 1), stride=(1, 1))\n              (act): SiLU(inplace=True)\n            )\n            (cv2): Conv(\n              (conv): Conv2d(64, 32, kernel_size=(1, 1), stride=(1, 1))\n              (act): SiLU(inplace=True)\n            )\n            (cv3): Conv(\n              (conv): Conv2d(64, 64, kernel_size=(1, 1), stride=(1, 1))\n              (act): SiLU(inplace=True)\n            )\n            (m): Sequential(\n              (0): Bottleneck(\n                (cv1): Conv(\n                  (conv): Conv2d(32, 32, kernel_size=(3, 3), stride=(1, 1), padding=(1, 1))\n                  (act): SiLU(inplace=True)\n                )\n                (cv2): Conv(\n                  (conv): Conv2d(32, 32, kernel_size=(3, 3), stride=(1, 1), padding=(1, 1))\n                  (act): SiLU(inplace=True)\n                )\n              )\n              (1): Bottleneck(\n                (cv1): Conv(\n                  (conv): Conv2d(32, 32, kernel_size=(3, 3), stride=(1, 1), padding=(1, 1))\n                  (act): SiLU(inplace=True)\n                )\n                (cv2): Conv(\n                  (conv): Conv2d(32, 32, kernel_size=(3, 3), stride=(1, 1), padding=(1, 1))\n                  (act): SiLU(inplace=True)\n                )\n              )\n            )\n          )\n        )\n      )\n      (7): Conv(\n        (conv): Conv2d(128, 256, kernel_size=(3, 3), stride=(2, 2), padding=(1, 1))\n        (act): SiLU(inplace=True)\n      )\n      (8): C3k2(\n        (cv1): Conv(\n          (conv): Conv2d(256, 256, kernel_size=(1, 1), stride=(1, 1))\n          (act): SiLU(inplace=True)\n        )\n        (cv2): Conv(\n          (conv): Conv2d(384, 256, kernel_size=(1, 1), stride=(1, 1))\n          (act): SiLU(inplace=True)\n        )\n        (m): ModuleList(\n          (0): C3k(\n            (cv1): Conv(\n              (conv): Conv2d(128, 64, kernel_size=(1, 1), stride=(1, 1))\n              (act): SiLU(inplace=True)\n            )\n            (cv2): Conv(\n              (conv): Conv2d(128, 64, kernel_size=(1, 1), stride=(1, 1))\n              (act): SiLU(inplace=True)\n            )\n            (cv3): Conv(\n              (conv): Conv2d(128, 128, kernel_size=(1, 1), stride=(1, 1))\n              (act): SiLU(inplace=True)\n            )\n            (m): Sequential(\n              (0): Bottleneck(\n                (cv1): Conv(\n                  (conv): Conv2d(64, 64, kernel_size=(3, 3), stride=(1, 1), padding=(1, 1))\n                  (act): SiLU(inplace=True)\n                )\n                (cv2): Conv(\n                  (conv): Conv2d(64, 64, kernel_size=(3, 3), stride=(1, 1), padding=(1, 1))\n                  (act): SiLU(inplace=True)\n                )\n              )\n              (1): Bottleneck(\n                (cv1): Conv(\n                  (conv): Conv2d(64, 64, kernel_size=(3, 3), stride=(1, 1), padding=(1, 1))\n                  (act): SiLU(inplace=True)\n                )\n                (cv2): Conv(\n                  (conv): Conv2d(64, 64, kernel_size=(3, 3), stride=(1, 1), padding=(1, 1))\n                  (act): SiLU(inplace=True)\n                )\n              )\n            )\n          )\n        )\n      )\n      (9): SPPF(\n        (cv1): Conv(\n          (conv): Conv2d(256, 128, kernel_size=(1, 1), stride=(1, 1))\n          (act): Identity()\n        )\n        (cv2): Conv(\n          (conv): Conv2d(512, 256, kernel_size=(1, 1), stride=(1, 1))\n          (act): SiLU(inplace=True)\n        )\n        (m): MaxPool2d(kernel_size=5, stride=1, padding=2, dilation=1, ceil_mode=False)\n      )\n      (10): C2PSA(\n        (cv1): Conv(\n          (conv): Conv2d(256, 256, kernel_size=(1, 1), stride=(1, 1))\n          (act): SiLU(inplace=True)\n        )\n        (cv2): Conv(\n          (conv): Conv2d(256, 256, kernel_size=(1, 1), stride=(1, 1))\n          (act): SiLU(inplace=True)\n        )\n        (m): Sequential(\n          (0): PSABlock(\n            (attn): Attention(\n              (qkv): Conv(\n                (conv): Conv2d(128, 256, kernel_size=(1, 1), stride=(1, 1))\n                (act): Identity()\n              )\n              (proj): Conv(\n                (conv): Conv2d(128, 128, kernel_size=(1, 1), stride=(1, 1))\n                (act): Identity()\n              )\n              (pe): Conv(\n                (conv): Conv2d(128, 128, kernel_size=(3, 3), stride=(1, 1), padding=(1, 1), groups=128)\n                (act): Identity()\n              )\n            )\n            (ffn): Sequential(\n              (0): Conv(\n                (conv): Conv2d(128, 256, kernel_size=(1, 1), stride=(1, 1))\n                (act): SiLU(inplace=True)\n              )\n              (1): Conv(\n                (conv): Conv2d(256, 128, kernel_size=(1, 1), stride=(1, 1))\n                (act): Identity()\n              )\n            )\n          )\n        )\n      )\n      (11): Upsample(scale_factor=2.0, mode='nearest')\n      (12): Concat()\n      (13): C3k2(\n        (cv1): Conv(\n          (conv): Conv2d(384, 128, kernel_size=(1, 1), stride=(1, 1))\n          (act): SiLU(inplace=True)\n        )\n        (cv2): Conv(\n          (conv): Conv2d(192, 128, kernel_size=(1, 1), stride=(1, 1))\n          (act): SiLU(inplace=True)\n        )\n        (m): ModuleList(\n          (0): C3k(\n            (cv1): Conv(\n              (conv): Conv2d(64, 32, kernel_size=(1, 1), stride=(1, 1))\n              (act): SiLU(inplace=True)\n            )\n            (cv2): Conv(\n              (conv): Conv2d(64, 32, kernel_size=(1, 1), stride=(1, 1))\n              (act): SiLU(inplace=True)\n            )\n            (cv3): Conv(\n              (conv): Conv2d(64, 64, kernel_size=(1, 1), stride=(1, 1))\n              (act): SiLU(inplace=True)\n            )\n            (m): Sequential(\n              (0): Bottleneck(\n                (cv1): Conv(\n                  (conv): Conv2d(32, 32, kernel_size=(3, 3), stride=(1, 1), padding=(1, 1))\n                  (act): SiLU(inplace=True)\n                )\n                (cv2): Conv(\n                  (conv): Conv2d(32, 32, kernel_size=(3, 3), stride=(1, 1), padding=(1, 1))\n                  (act): SiLU(inplace=True)\n                )\n              )\n              (1): Bottleneck(\n                (cv1): Conv(\n                  (conv): Conv2d(32, 32, kernel_size=(3, 3), stride=(1, 1), padding=(1, 1))\n                  (act): SiLU(inplace=True)\n                )\n                (cv2): Conv(\n                  (conv): Conv2d(32, 32, kernel_size=(3, 3), stride=(1, 1), padding=(1, 1))\n                  (act): SiLU(inplace=True)\n                )\n              )\n            )\n          )\n        )\n      )\n      (14): Upsample(scale_factor=2.0, mode='nearest')\n      (15): Concat()\n      (16): C3k2(\n        (cv1): Conv(\n          (conv): Conv2d(256, 64, kernel_size=(1, 1), stride=(1, 1))\n          (act): SiLU(inplace=True)\n        )\n        (cv2): Conv(\n          (conv): Conv2d(96, 64, kernel_size=(1, 1), stride=(1, 1))\n          (act): SiLU(inplace=True)\n        )\n        (m): ModuleList(\n          (0): C3k(\n            (cv1): Conv(\n              (conv): Conv2d(32, 16, kernel_size=(1, 1), stride=(1, 1))\n              (act): SiLU(inplace=True)\n            )\n            (cv2): Conv(\n              (conv): Conv2d(32, 16, kernel_size=(1, 1), stride=(1, 1))\n              (act): SiLU(inplace=True)\n            )\n            (cv3): Conv(\n              (conv): Conv2d(32, 32, kernel_size=(1, 1), stride=(1, 1))\n              (act): SiLU(inplace=True)\n            )\n            (m): Sequential(\n              (0): Bottleneck(\n                (cv1): Conv(\n                  (conv): Conv2d(16, 16, kernel_size=(3, 3), stride=(1, 1), padding=(1, 1))\n                  (act): SiLU(inplace=True)\n                )\n                (cv2): Conv(\n                  (conv): Conv2d(16, 16, kernel_size=(3, 3), stride=(1, 1), padding=(1, 1))\n                  (act): SiLU(inplace=True)\n                )\n              )\n              (1): Bottleneck(\n                (cv1): Conv(\n                  (conv): Conv2d(16, 16, kernel_size=(3, 3), stride=(1, 1), padding=(1, 1))\n                  (act): SiLU(inplace=True)\n                )\n                (cv2): Conv(\n                  (conv): Conv2d(16, 16, kernel_size=(3, 3), stride=(1, 1), padding=(1, 1))\n                  (act): SiLU(inplace=True)\n                )\n              )\n            )\n          )\n        )\n      )\n      (17): Conv(\n        (conv): Conv2d(64, 64, kernel_size=(3, 3), stride=(2, 2), padding=(1, 1))\n        (act): SiLU(inplace=True)\n      )\n      (18): Concat()\n      (19): C3k2(\n        (cv1): Conv(\n          (conv): Conv2d(192, 128, kernel_size=(1, 1), stride=(1, 1))\n          (act): SiLU(inplace=True)\n        )\n        (cv2): Conv(\n          (conv): Conv2d(192, 128, kernel_size=(1, 1), stride=(1, 1))\n          (act): SiLU(inplace=True)\n        )\n        (m): ModuleList(\n          (0): C3k(\n            (cv1): Conv(\n              (conv): Conv2d(64, 32, kernel_size=(1, 1), stride=(1, 1))\n              (act): SiLU(inplace=True)\n            )\n            (cv2): Conv(\n              (conv): Conv2d(64, 32, kernel_size=(1, 1), stride=(1, 1))\n              (act): SiLU(inplace=True)\n            )\n            (cv3): Conv(\n              (conv): Conv2d(64, 64, kernel_size=(1, 1), stride=(1, 1))\n              (act): SiLU(inplace=True)\n            )\n            (m): Sequential(\n              (0): Bottleneck(\n                (cv1): Conv(\n                  (conv): Conv2d(32, 32, kernel_size=(3, 3), stride=(1, 1), padding=(1, 1))\n                  (act): SiLU(inplace=True)\n                )\n                (cv2): Conv(\n                  (conv): Conv2d(32, 32, kernel_size=(3, 3), stride=(1, 1), padding=(1, 1))\n                  (act): SiLU(inplace=True)\n                )\n              )\n              (1): Bottleneck(\n                (cv1): Conv(\n                  (conv): Conv2d(32, 32, kernel_size=(3, 3), stride=(1, 1), padding=(1, 1))\n                  (act): SiLU(inplace=True)\n                )\n                (cv2): Conv(\n                  (conv): Conv2d(32, 32, kernel_size=(3, 3), stride=(1, 1), padding=(1, 1))\n                  (act): SiLU(inplace=True)\n                )\n              )\n            )\n          )\n        )\n      )\n      (20): Conv(\n        (conv): Conv2d(128, 128, kernel_size=(3, 3), stride=(2, 2), padding=(1, 1))\n        (act): SiLU(inplace=True)\n      )\n      (21): Concat()\n      (22): C3k2(\n        (cv1): Conv(\n          (conv): Conv2d(384, 256, kernel_size=(1, 1), stride=(1, 1))\n          (act): SiLU(inplace=True)\n        )\n        (cv2): Conv(\n          (conv): Conv2d(384, 256, kernel_size=(1, 1), stride=(1, 1))\n          (act): SiLU(inplace=True)\n        )\n        (m): ModuleList(\n          (0): Sequential(\n            (0): Bottleneck(\n              (cv1): Conv(\n                (conv): Conv2d(128, 64, kernel_size=(3, 3), stride=(1, 1), padding=(1, 1))\n                (act): SiLU(inplace=True)\n              )\n              (cv2): Conv(\n                (conv): Conv2d(64, 128, kernel_size=(3, 3), stride=(1, 1), padding=(1, 1))\n                (act): SiLU(inplace=True)\n              )\n            )\n            (1): PSABlock(\n              (attn): Attention(\n                (qkv): Conv(\n                  (conv): Conv2d(128, 256, kernel_size=(1, 1), stride=(1, 1))\n                  (act): Identity()\n                )\n                (proj): Conv(\n                  (conv): Conv2d(128, 128, kernel_size=(1, 1), stride=(1, 1))\n                  (act): Identity()\n                )\n                (pe): Conv(\n                  (conv): Conv2d(128, 128, kernel_size=(3, 3), stride=(1, 1), padding=(1, 1), groups=128)\n                  (act): Identity()\n                )\n              )\n              (ffn): Sequential(\n                (0): Conv(\n                  (conv): Conv2d(128, 256, kernel_size=(1, 1), stride=(1, 1))\n                  (act): SiLU(inplace=True)\n                )\n                (1): Conv(\n                  (conv): Conv2d(256, 128, kernel_size=(1, 1), stride=(1, 1))\n                  (act): Identity()\n                )\n              )\n            )\n          )\n        )\n      )\n      (23): Segment26(\n        (cv2): None\n        (cv3): None\n        (dfl): Identity()\n        (one2one_cv2): ModuleList(\n          (0): Sequential(\n            (0): Conv(\n              (conv): Conv2d(64, 16, kernel_size=(3, 3), stride=(1, 1), padding=(1, 1))\n              (act): SiLU(inplace=True)\n            )\n            (1): Conv(\n              (conv): Conv2d(16, 16, kernel_size=(3, 3), stride=(1, 1), padding=(1, 1))\n              (act): SiLU(inplace=True)\n            )\n            (2): Conv2d(16, 4, kernel_size=(1, 1), stride=(1, 1))\n          )\n          (1): Sequential(\n            (0): Conv(\n              (conv): Conv2d(128, 16, kernel_size=(3, 3), stride=(1, 1), padding=(1, 1))\n              (act): SiLU(inplace=True)\n            )\n            (1): Conv(\n              (conv): Conv2d(16, 16, kernel_size=(3, 3), stride=(1, 1), padding=(1, 1))\n              (act): SiLU(inplace=True)\n            )\n            (2): Conv2d(16, 4, kernel_size=(1, 1), stride=(1, 1))\n          )\n          (2): Sequential(\n            (0): Conv(\n              (conv): Conv2d(256, 16, kernel_size=(3, 3), stride=(1, 1), padding=(1, 1))\n              (act): SiLU(inplace=True)\n            )\n            (1): Conv(\n              (conv): Conv2d(16, 16, kernel_size=(3, 3), stride=(1, 1), padding=(1, 1))\n              (act): SiLU(inplace=True)\n            )\n            (2): Conv2d(16, 4, kernel_size=(1, 1), stride=(1, 1))\n          )\n        )\n        (one2one_cv3): ModuleList(\n          (0): Sequential(\n            (0): Sequential(\n              (0): DWConv(\n                (conv): Conv2d(64, 64, kernel_size=(3, 3), stride=(1, 1), padding=(1, 1), groups=64)\n                (act): SiLU(inplace=True)\n              )\n              (1): Conv(\n                (conv): Conv2d(64, 80, kernel_size=(1, 1), stride=(1, 1))\n                (act): SiLU(inplace=True)\n              )\n            )\n            (1): Sequential(\n              (0): DWConv(\n                (conv): Conv2d(80, 80, kernel_size=(3, 3), stride=(1, 1), padding=(1, 1), groups=80)\n                (act): SiLU(inplace=True)\n              )\n              (1): Conv(\n                (conv): Conv2d(80, 80, kernel_size=(1, 1), stride=(1, 1))\n                (act): SiLU(inplace=True)\n              )\n            )\n            (2): Conv2d(80, 80, kernel_size=(1, 1), stride=(1, 1))\n          )\n          (1): Sequential(\n            (0): Sequential(\n              (0): DWConv(\n                (conv): Conv2d(128, 128, kernel_size=(3, 3), stride=(1, 1), padding=(1, 1), groups=128)\n                (act): SiLU(inplace=True)\n              )\n              (1): Conv(\n                (conv): Conv2d(128, 80, kernel_size=(1, 1), stride=(1, 1))\n                (act): SiLU(inplace=True)\n              )\n            )\n            (1): Sequential(\n              (0): DWConv(\n                (conv): Conv2d(80, 80, kernel_size=(3, 3), stride=(1, 1), padding=(1, 1), groups=80)\n                (act): SiLU(inplace=True)\n              )\n              (1): Conv(\n                (conv): Conv2d(80, 80, kernel_size=(1, 1), stride=(1, 1))\n                (act): SiLU(inplace=True)\n              )\n            )\n            (2): Conv2d(80, 80, kernel_size=(1, 1), stride=(1, 1))\n          )\n          (2): Sequential(\n            (0): Sequential(\n              (0): DWConv(\n                (conv): Conv2d(256, 256, kernel_size=(3, 3), stride=(1, 1), padding=(1, 1), groups=256)\n                (act): SiLU(inplace=True)\n              )\n              (1): Conv(\n                (conv): Conv2d(256, 80, kernel_size=(1, 1), stride=(1, 1))\n                (act): SiLU(inplace=True)\n              )\n            )\n            (1): Sequential(\n              (0): DWConv(\n                (conv): Conv2d(80, 80, kernel_size=(3, 3), stride=(1, 1), padding=(1, 1), groups=80)\n                (act): SiLU(inplace=True)\n              )\n              (1): Conv(\n                (conv): Conv2d(80, 80, kernel_size=(1, 1), stride=(1, 1))\n                (act): SiLU(inplace=True)\n              )\n            )\n            (2): Conv2d(80, 80, kernel_size=(1, 1), stride=(1, 1))\n          )\n        )\n        (proto): Proto26(\n          (cv1): Conv(\n            (conv): Conv2d(64, 64, kernel_size=(3, 3), stride=(1, 1), padding=(1, 1))\n            (act): SiLU(inplace=True)\n          )\n          (upsample): ConvTranspose2d(64, 64, kernel_size=(2, 2), stride=(2, 2))\n          (cv2): Conv(\n            (conv): Conv2d(64, 64, kernel_size=(3, 3), stride=(1, 1), padding=(1, 1))\n            (act): SiLU(inplace=True)\n          )\n          (cv3): Conv(\n            (conv): Conv2d(64, 32, kernel_size=(1, 1), stride=(1, 1))\n            (act): SiLU(inplace=True)\n          )\n          (feat_refine): ModuleList(\n            (0): Conv(\n              (conv): Conv2d(128, 64, kernel_size=(1, 1), stride=(1, 1))\n              (act): SiLU(inplace=True)\n            )\n            (1): Conv(\n              (conv): Conv2d(256, 64, kernel_size=(1, 1), stride=(1, 1))\n              (act): SiLU(inplace=True)\n            )\n          )\n          (feat_fuse): Conv(\n            (conv): Conv2d(64, 64, kernel_size=(3, 3), stride=(1, 1), padding=(1, 1))\n            (act): SiLU(inplace=True)\n          )\n          (semseg): None\n        )\n        (cv4): None\n        (one2one_cv4): ModuleList(\n          (0): Sequential(\n            (0): Conv(\n              (conv): Conv2d(64, 32, kernel_size=(3, 3), stride=(1, 1), padding=(1, 1))\n              (act): SiLU(inplace=True)\n            )\n            (1): Conv(\n              (conv): Conv2d(32, 32, kernel_size=(3, 3), stride=(1, 1), padding=(1, 1))\n              (act): SiLU(inplace=True)\n            )\n            (2): Conv2d(32, 32, kernel_size=(1, 1), stride=(1, 1))\n          )\n          (1): Sequential(\n            (0): Conv(\n              (conv): Conv2d(128, 32, kernel_size=(3, 3), stride=(1, 1), padding=(1, 1))\n              (act): SiLU(inplace=True)\n            )\n            (1): Conv(\n              (conv): Conv2d(32, 32, kernel_size=(3, 3), stride=(1, 1), padding=(1, 1))\n              (act): SiLU(inplace=True)\n            )\n            (2): Conv2d(32, 32, kernel_size=(1, 1), stride=(1, 1))\n          )\n          (2): Sequential(\n            (0): Conv(\n              (conv): Conv2d(256, 32, kernel_size=(3, 3), stride=(1, 1), padding=(1, 1))\n              (act): SiLU(inplace=True)\n            )\n            (1): Conv(\n              (conv): Conv2d(32, 32, kernel_size=(3, 3), stride=(1, 1), padding=(1, 1))\n              (act): SiLU(inplace=True)\n            )\n            (2): Conv2d(32, 32, kernel_size=(1, 1), stride=(1, 1))\n          )\n        )\n      )\n    )\n  )\n)",
  "num_images": 100,
  "num_predictions": 100,
  "images_with_detections": 100,
  "avg_detections_per_image": 1.0,
  "conf_threshold": 0.25,
  "iou_threshold": 0.45,
  "filter_class": null,
  "device": "mps"
}